fashion_model_v2.pth (torch, 952282 bytes, 14 tensors)

net.0.weight f4 [256, 784]
0	0x3d3d6f26	0.046248578
1	0x3db66e7f	0.08907794
2	0xbe1111d2	-0.14166954
3	0xbe00e885	-0.12588699
4	0xbe7d09de	-0.24710795
5	0xbed32dea	-0.41245967
6	0xbe1a8805	-0.1509095
7	0xbed83e28	-0.4223492
8	0xbee4da2c	-0.44697702
9	0xbdbe148c	-0.09281263
10	0x3cdc0c89	0.026861446
11	0xbb3b60df	-0.0028591675
12	0x3d3c64e2	0.045994647
13	0x3d937f47	0.072020106
14	0xbcc4e182	-0.024033312
15	0x3d69217c	0.0569167
16	0x3ca56c06	0.020193111
17	0xbc1cee25	-0.009578262
18	0xbc1b8ea6	-0.009494459
19	0xbede5b88	-0.43429208
20	0xbefcddca	-0.49387962
21	0x3ba2a2ab	0.004963239
22	0xbd20de4d	-0.039274503
23	0x3e157131	0.1459396
24	0x3ee1d246	0.44105738
25	0x3e688916	0.22708544
26	0x3e4ea382	0.20179561
27	0x3e378977	0.17923532
28	0x3e8fa8df	0.28058526
29	0x3ed08cb6	0.40732354
30	0xbdc1c1d0	-0.09460795
31	0x3bf77b8c	0.0075525697
32	0xbe25d348	-0.16193879
33	0xbe6490aa	-0.2232081
34	0x3ece45a8	0.40287519
35	0x3df120fa	0.11773868
36	0xbc013a95	-0.007887502
37	0x3e2b43d0	0.16725087
38	0x3e0cacc6	0.13737783
39	0x3dd3beee	0.10339151
40	0xbce27287	-0.027642502
41	0xbe080ed2	-0.13286904
42	0xbde15561	-0.11002613
43	0x3d9ab489	0.075539656
44	0x3d3df44d	0.04637556
45	0x3e0831ee	0.13300297
46	0x3e212920	0.15738344
47	0xbd5cce84	-0.053907886
48	0x3d82de29	0.0639003
49	0x3cc65e4f	0.024214892
50	0x3dc11bc0	0.09429121
51	0x3c498c78	0.012301557
52	0x3e2bed3a	0.16789714
53	0x3e413d6e	0.1887109
54	0x3e4a698a	0.19766822
55	0x3de5690d	0.112016775
56	0x3e16dbc7	0.14732276
57	0xbaa1e54e	-0.0012351663
58	0xbb2b2ffd	-0.0026121133
59	0xbe259122	-0.16168645
60	0xbd9c8a7d	-0.07643602
61	0x3d8d41db	0.068973266
62	0x3e006d5a	0.12541714
63	0x3da7b67d	0.08189104
64	0x3d3c08e0	0.0459069
65	0x3db89e3a	0.09014554
66	0x3c672cd0	0.014109805
67	0x3ceef694	0.029170312
68	0xbd9b497e	-0.07582377
69	0x3c65155a	0.013982141
70	0x3d241e0e	0.040067725
71	0xbd90de6e	-0.07073675
72	0xbd0b8f2e	-0.034072094
73	0xbdbfce55	-0.093655266
74	0xbd4f1d0e	-0.050564818
75	0x3d925246	0.07144599
76	0xbd0356c2	-0.03206516
77	0x3d4d1ab9	0.050074313
78	0xba8afe04	-0.0010604267
79	0x3e69c820	0.22830248
80	0x3e26d75b	0.16293089
81	0x3e348955	0.17630513
82	0x3e94fb7d	0.2909812
83	0x3e5c7b46	0.215314
84	0x3b468f7c	0.0030297926
85	0xbcc63528	-0.024195269
86	0xbd2f407a	-0.0427861
87	0xbe1497ba	-0.14511004
88	0xbd87109f	-0.06594967
89	0x3bf9e9d7	0.007626753
90	0xbdfa9416	-0.122352764
91	0xbdeed6ce	-0.116620645
92	0xbdd82467	-0.10553818
93	0x3d9203f4	0.0712966
94	0x3d96806d	0.07348714
95	0xbc84ec45	-0.016225943
96	0xbd916252	-0.07098831
97	0x3cd89dd7	0.026442451
98	0xbc010ef1	-0.007877097
99	0x3cce1823	0.025157994
100	0x3da58890	0.08082688
101	0xbd869dc7	-0.065730624
102	0x3cc49698	0.02399759
103	0xbcacbae6	-0.021085214
104	0xbca64e21	-0.020300927
105	0x3cde8b4d	0.027166033
106	0xbc8e85ba	-0.01739775
107	0x3dbb1a18	0.09135836
108	0x3de25a94	0.11052433
109	0x3e119951	0.14218642
110	0x3db77eb6	0.08959715
111	0x3d9d84b1	0.076913245
112	0x3ca15b07	0.019696726
113	0x3c960b93	0.018316066
114	0xbd697b7b	-0.057002526
115	0x3bda5a66	0.0066636084
116	0xbd0ef10c	-0.03489785
117	0x3b121a5e	0.0022293548
118	0xbe0da457	-0.13832222
119	0xbe6378d8	-0.22214067
120	0xbe085df1	-0.13317086
121	0xbd388edb	-0.045058113
122	0x3d711c71	0.058865014
123	0x3d665d43	0.056241285
124	0x3db904bb	0.090341054
125	0x3d97a7fd	0.07405088
126	0x3e2aef66	0.16692886
127	0x3da81378	0.08206838
128	0x3e272983	0.16324429
129	0x3ce5780c	0.028011344
130	0xbd110ca2	-0.03541244
131	0xbd80a8ad	-0.06282172
132	0xbe09913c	-0.13434309
133	0xbcde3aa0	-0.027127564
134	0x3df52449	0.119698115
135	0x3e343fa5	0.17602403
136	0x3da4b57b	0.08042427
137	0x3cd606e0	0.026126325
138	0x3bd3ee3a	0.006467608
139	0x3d914649	0.07093484
140	0x3bfdf31a	0.007749927
141	0xbcb21ee1	-0.02174324
142	0xbdde5e0d	-0.108577825
143	0x3de65a45	0.11247686
144	0x3b0d4a26	0.0021559088
145	0xbdc96c0e	-0.09835063
146	0xbe14a26f	-0.14515088
147	0xbe5515fd	-0.20809169
148	0xbd6dfe54	-0.058103874
149	0x3d95ff15	0.07324044
150	0x3e36f57a	0.1786708
151	0x3e41e1f3	0.18933849
152	0xbc73a3cd	-0.014870596
153	0x3d9cbb40	0.076529026
154	0x3e2ef603	0.17086034
155	0xbb3173a0	-0.0027076975
156	0x3d82d813	0.06388869
157	0x3d267b5d	0.040644992
158	0xbd856223	-0.06512859
159	0xbd798ba1	-0.060924176
160	0xbdb8a300	-0.09015465
161	0xbc9c244b	-0.019060275
162	0x3dc3e131	0.09564436
163	0x3e4578f1	0.19284417
164	0x3e17ea1b	0.14835398
165	0x3da360bc	0.07977435
166	0xbcd8d8ef	-0.02647063
167	0xbdc0b1e9	-0.09408934
168	0x3d3b0bb9	0.045665476
169	0x3c42a24f	0.011879518
170	0xbd8f2d5e	-0.06991075
171	0x3e461453	0.1934369
172	0x3d401e75	0.046904046
173	0xbd1e8bad	-0.038707424
174	0xbe3a5545	-0.1819659
175	0xbe0a8d2d	-0.13530417
176	0xbc47f2d8	-0.012203895
177	0x3d62948c	0.055317447
178	0x3e089db7	0.13341413
179	0x3e0cb0a8	0.13739264
180	0x3d5fc874	0.054634526
181	0xba158604	-0.0005703869
182	0x3e250af5	0.16117461
183	0x3c0e741c	0.008694675
184	0xbdd5f624	-0.10447338
185	0xbd8ac4ea	-0.067758396
186	0xbc66829a	-0.014069224
187	0x3d971896	0.07377736
188	0xbdba1d6c	-0.09087643
189	0x3e0c65f6	0.1371077
190	0x3d79ddb2	0.06100244
191	0xbcb742e9	-0.022370772
192	0xbc27e172	-0.010246621
193	0xbdca6705	-0.09882931
194	0xbd261aac	-0.04055278
195	0xbb0f8cf4	-0.0021904083
196	0xbbce8ea5	-0.0063036256
197	0x3e0ddc9d	0.13853689
198	0x3dfafd8f	0.12255394
199	0x3e5b2f86	0.21404848
200	0xbd0d989b	-0.034569364
201	0x3d6af8b2	0.05736608
202	0xbe3cb147	-0.18427001
203	0xbd646e73	-0.055769395
204	0xbdde444f	-0.108528726
205	0xbd569991	-0.052392546
206	0x3df7378c	0.120711416
207	0x3d0c34d6	0.034230076
208	0x3dacf81f	0.08445763
209	0xbdb3c17f	-0.08777141
210	0x3de36fb1	0.11105288
211	0x3b2a7a5c	0.0026012873
212	0xbdfaad23	-0.122400545
213	0xbdab9a1a	-0.08379002
214	0xbd0c0425	-0.03418364
215	0x3d52fa93	0.051508497
216	0xbd74b58f	-0.05974346
217	0x3e2a8af4	0.16654569
218	0x3d8e9e05	0.069637336
219	0xbe01cae4	-0.12675053
220	0xbe2ce6d6	-0.16884932
221	0xbea20b2a	-0.31649143
222	0xbdf6ff21	-0.12060381
223	0x3e8aa86a	0.27081615
224	0x3e413d25	0.18870981
225	0x3d599ff4	0.05313106
226	0xbd4fd7f8	-0.050743073
227	0x3c576fd1	0.013149218
228	0xbc84f049	-0.016227858
229	0x3e0a889d	0.13528676
230	0xbd79cc39	-0.060985778
231	0xbc62881d	-0.013826397
232	0xbde6c064	-0.11267164
233	0x3cc723ef	0.024309127
234	0x3dd7e843	0.10542347
235	0x3d3f1843	0.046653997
236	0x3d336212	0.0437947
237	0x3dab8f4a	0.083769396
238	0x3d984004	0.07434085
239	0xbb8650cf	-0.0040989886
240	0xbd9c1000	-0.07620239
241	0xbe4c255f	-0.19936131
242	0xbdab44c2	-0.08362724
243	0xbd8f1189	-0.069857664
244	0xbdaa732a	-0.08322747
245	0xbdc82846	-0.097733065
246	0xbda90992	-0.082537785
247	0xbec7dc40	-0.39035225
248	0xbe753cf0	-0.23949027
249	0xbe477f8d	-0.1948225
250	0xbe211485	-0.15730484
251	0x3e98c972	0.2984119
252	0x3e112c71	0.1417711
253	0xbd3cb931	-0.04607505
254	0x3cbe47df	0.02322763
255	0xbdafb8ad	-0.08580146

net.0.bias f4 [256]
0	0xbd01d8c5	-0.03170087
1	0xbc922828	-0.017841414
2	0xbcb4b909	-0.022060888
3	0x3cbbe074	0.022934176
4	0xbc8a719a	-0.016899873
5	0xbcd8dbd6	-0.026472013
6	0x3c401c14	0.011725444
7	0xbcf0f78f	-0.02941492
8	0x3d001f9c	0.031280145
9	0x3cb7d462	0.02244014
10	0xbd1a1bf1	-0.037624303
11	0xbd0b2f1d	-0.033980478
12	0x3c65a917	0.014017365
13	0xbd0f3d89	-0.034970794
14	0xbc9d3f40	-0.019195199
15	0xbc9279c3	-0.017880326
16	0xbc2658f6	-0.010153046
17	0x3c4d0853	0.012514192
18	0xbbce20c0	-0.006290525
19	0xbcba4868	-0.022739604
20	0x3c8e23eb	0.017351111
21	0xbd7e34a0	-0.062061906
22	0x3ca469d4	0.020069994
23	0x3c32cb8d	0.010912788
24	0xbc5da020	-0.013526946
25	0xbca962ee	-0.020677056
26	0x3c897978	0.016781554
27	0xbc91deb1	-0.017806383
28	0xbd108868	-0.035286337
29	0x3ca07e41	0.019591453
30	0x3d14db07	0.036341693
31	0xbd019a46	-0.031641267
32	0x3cdabce7	0.026701404
33	0xbd086411	-0.033298556
34	0xbc361284	-0.011112813
35	0x3d02aa56	0.031900726
36	0x3be32ae5	0.0069326037
37	0x3d2a28da	0.041542865
38	0xbd006610	-0.031347334
39	0xbc8239bc	-0.01589667
40	0xbc8e82e4	-0.017396398
41	0xbc9b4bed	-0.018957103
42	0xbbc2130f	-0.005922682
43	0x3cfef1da	0.031121183
44	0xbcbe2e05	-0.023215303
45	0x3c545422	0.012959512
46	0xbcb666a0	-0.022265732
47	0x3ce0855e	0.027407344
48	0xbcecbaf7	-0.028897746
49	0x3d13f50e	0.036122374
50	0x3c06d753	0.008230048
51	0xbcde02aa	-0.02710088
52	0xbcef0fe0	-0.029182374
53	0xbc8a3265	-0.016869733
54	0xbca4f5ac	-0.020136677
55	0xbcd72c36	-0.026266199
56	0x3c90a326	0.01765592
57	0xb87c70dc	-6.018659e-05
58	0xbc27cd58	-0.010241829
59	0x39d5b4fe	0.00040761376
60	0x3cbe2f2e	0.023215856
61	0xbcd0833c	-0.025453202
62	0x3d0da1f7	0.03457829
63	0xbb738c69	-0.0037162548
64	0x3ce6460c	0.028109573
65	0x3c626150	0.013817146
66	0x3bb54f3b	0.0055331266
67	0xbcf13c19	-0.029447602
68	0xbb7bf6f4	-0.0038446756
69	0x3c06d2e9	0.008228996
70	0x3c2e2bd1	0.010630564
71	0x3b9dcd6f	0.0048157494
72	0xbbaddc99	-0.0053058383
73	0xbbc271a0	-0.0059339553
74	0xbc616939	-0.013757997
75	0x3c6b0a54	0.014345724
76	0xbcd791ea	-0.026314694
77	0xbc48a22a	-0.012245694
78	0xbcc0a640	-0.023516774
79	0x3c2acf13	0.010425347
80	0x3c1ff071	0.009761916
81	0x3c0162ba	0.007897073
82	0xbca86f94	-0.020561017
83	0xbd2c6ee4	-0.04209794
84	0xbd08e466	-0.033420943
85	0xbcda7286	-0.026665937
86	0x3c4f5acc	0.012655925
87	0xbd0286d1	-0.031866852
88	0xbcd850e0	-0.026405752
89	0xbbcfab7e	-0.006337582
90	0x3ce16eee	0.027518716
91	0xbcb51b62	-0.022107784
92	0x3d26ed54	0.040753677
93	0xbc2e079e	-0.010621933
94	0xbc7a63c6	-0.015282577
95	0xbbf4cb47	-0.0074705216
96	0x3cdfa881	0.027302029
97	0xbc354bb5	-0.011065413
98	0xbc0a816e	-0.00845371
99	0xbcbcf6e6	-0.02306695
100	0xbc9ea036	-0.019363504
101	0x3c4574d0	0.012051776
102	0xbcd95f65	-0.026534745
103	0xbc82deaf	-0.015975324
104	0xbd277fc1	-0.04089332
105	0xbbe9a0fe	-0.0071297875
106	0x3cad30d4	0.021141447
107	0xbbd801de	-0.0065920195
108	0x3d00d991	0.031457487
109	0xbcc30f6f	-0.02381107
110	0xbc92658f	-0.017870693
111	0x3cb5c508	0.022188678
112	0x3c857fd6	0.016296308
113	0xbd1e3ce4	-0.03863229
114	0x3d286a73	0.041117143
115	0xbc6d3422	-0.014477761
116	0xbcb6adc9	-0.022299664
117	0x3d368e39	0.044569228
118	0xbd2822de	-0.041048877
119	0xbcc66268	-0.024216846
120	0xbc0d8cc0	-0.008639514
121	0x3c66354c	0.014050793
122	0x3cf4607a	0.02983116
123	0x3d2afe87	0.041746642
124	0x3c11416c	0.008865695
125	0xbbcceadb	-0.006253583
126	0xbc92a79c	-0.017902188
127	0xbc016f30	-0.007900044
128	0x3cc462ae	0.023972835
129	0x3ce314ca	0.027719874
130	0x3cc659d6	0.024212759
131	0x3ba4f046	0.0050335256
132	0x3ce8ca36	0.028416734
133	0xbca6699f	-0.020314036
134	0xbc894e63	-0.01676101
135	0x3c8eb6cf	0.017421154
136	0x3cd11dc3	0.025526887
137	0x3b2c3590	0.0026277043
138	0xbaee7052	-0.0018191433
139	0xbbfb549e	-0.0076699993
140	0x3c0a9b42	0.008459868
141	0x3cfa767a	0.030574072
142	0xbc72e77f	-0.014825701
143	0xbc26f820	-0.010190994
144	0xbc63c340	-0.013901532
145	0x3cbdd9e7	0.023175193
146	0x3c9ce423	0.019151753
147	0xbc5b6e4e	-0.013392998
148	0x3c93b2e3	0.018029636
149	0x3cb1e04f	0.021713404
150	0xbcedaba8	-0.029012516
151	0xbcba9c56	-0.022779625
152	0xbd067830	-0.032829463
153	0x3b062239	0.0020467176
154	0xbc78eb46	-0.015192812
155	0xbc8f0061	-0.017456235
156	0x3c2845a6	0.010270512
157	0x3c85f767	0.016353322
158	0xbc85e9d3	-0.016346848
159	0xbcd94311	-0.026521238
160	0xbcb31b06	-0.021863472
161	0xbd071dce	-0.03298741
162	0xbcc37b75	-0.02386258
163	0xbcb0cbec	-0.021581613
164	0xbd090c8d	-0.033459235
165	0x3c2976cf	0.010343268
166	0xbd1aa13b	-0.037751418
167	0xbd061b73	-0.03274102
168	0x3bb80ae7	0.005616534
169	0x3c567fc6	0.013091987
170	0x3d1585d8	0.036504596
171	0x3d2577a3	0.040397298
172	0xbd21b7d8	-0.039481968
173	0xbd14846c	-0.0362591
174	0x3be56b2f	0.0070013027
175	0xbc8b33a6	-0.016992401
176	0xbca51bea	-0.020154912
177	0x3b1c1141	0.0023813995
178	0xbc85d9ee	-0.016339269
179	0x3caa3584	0.020777471
180	0xbc055dbd	-0.008140025
181	0x3bc3ff2a	0.0059813457
182	0xbca921ea	-0.020646054
183	0xbcd05ceb	-0.025434932
184	0xbc9a47e6	-0.018833112
185	0xbcdecb70	-0.027196616
186	0xbb952137	-0.0045510787
187	0xbc22472f	-0.009904667
188	0x3c4dacc8	0.012553401
189	0xbb45c8e5	-0.0030179557
190	0xbc4687a2	-0.012117298
191	0xbcf5fbbf	-0.030027268
192	0x3cfb0ed8	0.030646726
193	0x3cb3194c	0.021862648
194	0x3d2c1d29	0.042019997
195	0xbc3484d0	-0.011017993
196	0x3cc326d6	0.02382223
197	0xbd152256	-0.0364097
198	0xbc32556c	-0.010884624
199	0x3cd84c13	0.026403463
200	0xbb82675c	-0.0039796066
201	0xbb0e8a66	-0.0021749972
202	0xbca77cc8	-0.020445243
203	0x3c76ea56	0.0150705185
204	0x3bd5fccb	0.0065303794
205	0xbb865cc1	-0.0041004126
206	0xbc8fb5c0	-0.01754272
207	0x3d1ccd29	0.038281593
208	0x3d1017bc	0.035178885
209	0x3cf4c086	0.029876959
210	0x3d058aa6	0.03260293
211	0xbc853020	-0.0162583
212	0xbca99743	-0.02070201
213	0xbca11104	-0.019661434
214	0xbc5b0f58	-0.013370357
215	0xbc95df40	-0.01829493
216	0x3cfa1def	0.030531852
217	0x3d0ff405	0.035144825
218	0x3ce43e71	0.027861806
219	0xbcfb4e76	-0.030677062
220	0x3d104370	0.035220563
221	0xbc39d31c	-0.011341836
222	0xbcaf53b0	-0.02140221
223	0xbd17f10b	-0.03709511
224	0x3caee7ad	0.021350706
225	0xbd2358fd	-0.039879788
226	0x3c3d7ba0	0.011565119
227	0xbc601097	-0.01367583
228	0xbcc62def	-0.024191825
229	0x3cf84c5a	0.030309845
230	0xbbac1247	-0.0052512023
231	0x3ab031c0	0.0013442561
232	0x3abdd7d1	0.0014483874
233	0xbd0132a8	-0.03154245
234	0x3b84fd8a	0.0040585445
235	0xbd037a50	-0.03209907
236	0x3cade3c1	0.021226766
237	0xbcc81986	-0.024426233
238	0xbca9dc25	-0.020734856
239	0x3b6aac88	0.0035808403
240	0xbbed7644	-0.0072467644
241	0xbc7fbca2	-0.015608938
242	0x3cb1568c	0.021647714
243	0x3c8d3592	0.017237458
244	0x3cbfd0aa	0.023414928
245	0xbbfb27f1	-0.0076646735
246	0x3aca9ab6	0.0015457484
247	0xbbf65000	-0.007516861
248	0x3b5a1185	0.0033274603
249	0xbc0dc6db	-0.008653368
250	0x3cdbac7f	0.026815651
251	0x3c25d935	0.010122587
252	0x3cf8342f	0.03029832
253	0xbd094bbc	-0.03351949
254	0xbbf6943d	-0.0075249956
255	0x3cc2d50b	0.023783227

net.1.weight f4 [256]
0	0x3f75d60f	0.9602975
1	0x3f4a0a53	0.78922004
2	0x3f4a4e18	0.7902541
3	0x3f5fa67a	0.873634
4	0x3f75d341	0.9602547
5	0x3f48626e	0.7827519
6	0x3f8368f0	1.0266399
7	0x3f484c24	0.7824118
8	0x3f4e3761	0.8055325
9	0x3f617481	0.88068396
10	0x3f5009a7	0.8126473
11	0x3f5c0807	0.8594975
12	0x3f5c33d5	0.8601659
13	0x3f35d0b4	0.7102158
14	0x3f729a7d	0.9476698
15	0x3f5e922a	0.8694178
16	0x3f5c957c	0.86165595
17	0x3f5c7b0b	0.8612525
18	0x3f71d907	0.9447178
19	0x3f5db4d3	0.8660404
20	0x3f5993d1	0.84991175
21	0x3f7e5049	0.99341255
22	0x3f5e06ae	0.8672894
23	0x3f6a5c46	0.9154705
24	0x3f5d4358	0.86430883
25	0x3f54e54c	0.8316238
26	0x3f582176	0.8442606
27	0x3f6d1de4	0.92623734
28	0x3f640b28	0.89079523
29	0x3f5f27bf	0.8717002
30	0x3f6dbefb	0.9286954
31	0x3f66e491	0.90192515
32	0x3f4fcb63	0.8116972
33	0x3f80fac4	1.0076528
34	0x3f783d30	0.96968365
35	0x3f54f969	0.8319307
36	0x3f66c01c	0.90136886
37	0x3f4fbdda	0.81149065
38	0x3f62c971	0.88588625
39	0x3f5ed5a1	0.8704472
40	0x3f535de8	0.82565165
41	0x3f5cdaa7	0.86271137
42	0x3f68acff	0.9088897
43	0x3f6bf16b	0.9216525
44	0x3f4bf370	0.7966833
45	0x3f756885	0.9586261
46	0x3f5b5dd1	0.8569003
47	0x3f651133	0.8947937
48	0x3f5c4d12	0.860551
49	0x3f714c4b	0.9425704
50	0x3f65b232	0.8972503
51	0x3f6c7f0e	0.9238137
52	0x3f6b3cf8	0.91889906
53	0x3f564ffd	0.837158
54	0x3f5996c5	0.8499568
55	0x3f7016f9	0.93785053
56	0x3f617da2	0.88082325
57	0x3f4f970e	0.81089866
58	0x3f59de29	0.85104614
59	0x3f5b0a00	0.85562134
60	0x3f63a6cf	0.88926405
61	0x3f6cb3ae	0.9246167
62	0x3f492b15	0.7858136
63	0x3f5d62ed	0.86479074
64	0x3f7e3fc5	0.99316055
65	0x3f6be3d3	0.9214451
66	0x3f60f582	0.87874615
67	0x3f5b639e	0.8569888
68	0x3f5700a1	0.83985335
69	0x3f6f6d84	0.9352648
70	0x3f4812ae	0.781535
71	0x3f710bab	0.9415843
72	0x3f61d912	0.8822185
73	0x3f70f125	0.9411796
74	0x3f6ff004	0.9372561
75	0x3f5bbade	0.8583201
76	0x3f5431ed	0.8288868
77	0x3f65ef95	0.898187
78	0x3f56e192	0.83937943
79	0x3f5cfe22	0.86325276
80	0x3f78bb70	0.97161007
81	0x3f6667fc	0.9000242
82	0x3f66e233	0.901889
83	0x3f7327de	0.9498271
84	0x3f567989	0.837792
85	0x3f6cddf3	0.9252617
86	0x3f618b66	0.8810333
87	0x3f600218	0.87503195
88	0x3f6d4332	0.92680657
89	0x3f66b889	0.9012533
90	0x3f5ad62b	0.85483044
91	0x3f7084f1	0.9395285
92	0x3f5e45c0	0.8682518
93	0x3f70db6d	0.9408482
94	0x3f5883b0	0.8457594
95	0x3f562684	0.8365252
96	0x3f67563c	0.9036596
97	0x3f5dc3dc	0.8662698
98	0x3f6a7bd2	0.91595185
99	0x3f6e166c	0.93002963
100	0x3f5da3fa	0.86578333
101	0x3f4e77c4	0.806515
102	0x3f80cfd6	1.0063426
103	0x3f6bd5bf	0.92123026
104	0x3f616c80	0.8805618
105	0x3f5daeac	0.86594653
106	0x3f480624	0.7813437
107	0x3f5c4ec2	0.86057675
108	0x3f80db24	1.0066876
109	0x3f53612a	0.82570136
110	0x3f76560a	0.96225035
111	0x3f67fc17	0.90619034
112	0x3f49facb	0.78898305
113	0x3f55772b	0.8338496
114	0x3f5a6216	0.8530592
115	0x3f64c539	0.8936344
116	0x3f64754b	0.89241475
117	0x3f65e023	0.8979513
118	0x3f5da560	0.8658047
119	0x3f7bd921	0.9837819
120	0x3f5b372f	0.8563108
121	0x3f662875	0.8990548
122	0x3f58d9ad	0.84707147
123	0x3f5b983c	0.85779166
124	0x3f5f3d2e	0.8720273
125	0x3f5e62c3	0.8686945
126	0x3f5628b8	0.8365588
127	0x3f6586bd	0.8965872
128	0x3f56280c	0.83654857
129	0x3f5941a3	0.8486578
130	0x3f5da8f4	0.86585927
131	0x3f5a43ff	0.85260004
132	0x3f56d4b7	0.8391833
133	0x3f6deb4c	0.9293716
134	0x3f64eec4	0.8942683
135	0x3f604eba	0.8762013
136	0x3f5a2ede	0.85227764
137	0x3f64bfed	0.89355356
138	0x3f61b3e9	0.88165146
139	0x3f6979fe	0.9120177
140	0x3f5fe101	0.87452704
141	0x3f575587	0.8411488
142	0x3f4ed5c7	0.8079495
143	0x3f4afe84	0.7929461
144	0x3f6b5395	0.9192441
145	0x3f6a95fb	0.916351
146	0x3f54dbe3	0.8314802
147	0x3f784f6f	0.96996206
148	0x3f7b6200	0.9819641
149	0x3f6fd04a	0.936772
150	0x3f4f5bb9	0.8099933
151	0x3f75277b	0.9576337
152	0x3f5f52c9	0.87235695
153	0x3f55ac00	0.83465576
154	0x3f5e4714	0.86827207
155	0x3f56ff38	0.8398318
156	0x3f66882e	0.90051544
157	0x3f59f2eb	0.8513629
158	0x3f7b4953	0.9815876
159	0x3f686298	0.9077544
160	0x3f70a142	0.9399606
161	0x3f3c7a46	0.73624074
162	0x3f5924f4	0.8482201
163	0x3f54a182	0.8305894
164	0x3f756ad5	0.9586614
165	0x3f70b6bd	0.94028836
166	0x3f57b347	0.8425793
167	0x3f784f14	0.96995664
168	0x3f4b0574	0.79305196
169	0x3f67effc	0.9060056
170	0x3f68efec	0.9099109
171	0x3f584397	0.84478134
172	0x3f5ac9fb	0.8546445
173	0x3f633ae2	0.88761723
174	0x3f683ebc	0.90720725
175	0x3f52b064	0.823004
176	0x3f7ba218	0.9829421
177	0x3f724ebf	0.94651407
178	0x3f4eed4e	0.8083085
179	0x3f5d954c	0.86555934
180	0x3f6cc44a	0.92487013
181	0x3f6638ff	0.8993072
182	0x3f628128	0.88478327
183	0x3f6d015b	0.92580193
184	0x3f5a6fac	0.8532665
185	0x3f69e66d	0.91367227
186	0x3f3a3b16	0.7274641
187	0x3f5a80ca	0.85352767
188	0x3f681c2d	0.9066799
189	0x3f46e00e	0.7768563
190	0x3f5b0f09	0.85569817
191	0x3f6c669c	0.9234407
192	0x3f6bd91e	0.9212817
193	0x3f835791	1.0261098
194	0x3f64da99	0.89396054
195	0x3f739514	0.9514935
196	0x3f76fa50	0.96475697
197	0x3f661031	0.89868456
198	0x3f50f4c7	0.816235
199	0x3f60c74f	0.8780412
200	0x3f649761	0.89293486
201	0x3f5a1559	0.85188824
202	0x3f615877	0.8802561
203	0x3f51fee3	0.8202955
204	0x3f60cba4	0.8781073
205	0x3f76790d	0.9627846
206	0x3f5b63c6	0.8569912
207	0x3f717156	0.9431356
208	0x3f745d7a	0.95455134
209	0x3f6a4001	0.9150391
210	0x3f6fb579	0.9363628
211	0x3f465048	0.7746625
212	0x3f666d6d	0.9001072
213	0x3f60a756	0.87755334
214	0x3f6067ac	0.8765819
215	0x3f766241	0.96243674
216	0x3f55d02f	0.8352079
217	0x3f4895b3	0.7835342
218	0x3f7186ee	0.9434651
219	0x3f6f52fa	0.9348599
220	0x3f5f85cd	0.8731354
221	0x3f511212	0.816682
222	0x3f605ed7	0.87644714
223	0x3f5d202f	0.86377233
224	0x3f520f39	0.8205448
225	0x3f5e47e4	0.86828446
226	0x3f55bc23	0.834902
227	0x3f612d26	0.87959516
228	0x3f5031cc	0.81325984
229	0x3f5c8cac	0.8615215
230	0x3f59e6ca	0.8511778
231	0x3f70b5b1	0.9402724
232	0x3f61372d	0.87974817
233	0x3f7db7d8	0.9910865
234	0x3f5bc161	0.8584195
235	0x3f6f39a8	0.9344735
236	0x3f66a901	0.9010163
237	0x3f5cbdf4	0.86227345
238	0x3f58fefd	0.8476408
239	0x3f6b1557	0.91829437
240	0x3f645b10	0.8920145
241	0x3f6d950c	0.9280555
242	0x3f6ae2a0	0.9175205
243	0x3f47fe5e	0.7812251
244	0x3f6eb40c	0.9324348
245	0x3f594a19	0.8487869
246	0x3f5e5164	0.8684294
247	0x3f55748e	0.83380973
248	0x3f67d3a5	0.9055732
249	0x3f650351	0.89458185
250	0x3f497f8a	0.78710234
251	0x3f66252f	0.8990049
252	0x3f74c279	0.9560924
253	0x3f773da6	0.96578443
254	0x3f51fc00	0.82025146
255	0x3f6577fe	0.8963622

net.1.bias f4 [256]
0	0xbf2755b4	-0.6536515
1	0xbeab69ae	-0.33479065
2	0xbf092fa2	-0.53588307
3	0xbec69a0a	-0.38789397
4	0xbedb1c94	-0.4279524
5	0xbedc8a68	-0.43074346
6	0xbf19c306	-0.6006321
7	0xbe8bfd04	-0.27341473
8	0xbeee4bd5	-0.4654223
9	0xbeef3b73	-0.46725044
10	0xbeec9e13	-0.4621435
11	0xbeeef1d6	-0.4666888
12	0xbef845bf	-0.48490712
13	0xbe8a2f20	-0.2698908
14	0xbf27b34a	-0.6550795
15	0xbf08f0bb	-0.53492326
16	0xbefa8fc2	-0.48937804
17	0xbf01691c	-0.5055101
18	0xbef43b28	-0.47701383
19	0xbeb1c1e5	-0.34718242
20	0xbf145edf	-0.5795726
21	0xbf22d5f5	-0.6360772
22	0xbee9811d	-0.45606318
23	0xbeccdd1b	-0.4001244
24	0xbef8860e	-0.48539776
25	0xbe9988b5	-0.29987112
26	0xbf2a9bc4	-0.6664393
27	0xbee9bfdf	-0.456542
28	0xbecda72b	-0.40166602
29	0xbee821e5	-0.4533836
30	0xbf0e64b0	-0.55622387
31	0xbf0434ae	-0.5164288
32	0xbeedf3e0	-0.46475124
33	0xbefe2fb2	-0.49645764
34	0xbeb86444	-0.36013997
35	0xbeeae5f6	-0.4587857
36	0xbecbe4f0	-0.39823103
37	0xbed9f1d5	-0.42567316
38	0xbf10c758	-0.56554174
39	0xbedf0d0f	-0.4356465
40	0xbee9b104	-0.45642865
41	0xbf102b7f	-0.5631637
42	0xbec4d5e3	-0.38444433
43	0xbf1e3f0b	-0.61814946
44	0xbf00aaa3	-0.5026037
45	0xbf0d4e54	-0.55197644
46	0xbef566af	-0.47929904
47	0xbf29748c	-0.6619346
48	0xbf09e2bd	-0.538616
49	0xbf08a6a7	-0.5337929
50	0xbf07769c	-0.5291536
51	0xbf079836	-0.5296663
52	0xbedf2ee4	-0.43590462
53	0xbef3f007	-0.47644064
54	0xbecb8669	-0.39750984
55	0xbef3d32e	-0.47622055
56	0xbedeaea1	-0.43492606
57	0xbef79ddb	-0.48362622
58	0xbed4f635	-0.4159409
59	0xbed45cd5	-0.41477075
60	0xbf189c99	-0.5961395
61	0xbf2d42e8	-0.67680216
62	0xbed1abcf	-0.40951392
63	0xbeee3f78	-0.46532798
64	0xbec1957e	-0.37809366
65	0xbf19715e	-0.5993861
66	0xbf18cac9	-0.59684426
67	0xbe90b1d2	-0.28260666
68	0xbf0e0b75	-0.5548623
69	0xbf0eb4cf	-0.5574464
70	0xbec5abd4	-0.38607657
71	0xbebf42d0	-0.3735566
72	0xbef9073d	-0.48638335
73	0xbf19b881	-0.60047156
74	0xbef9712c	-0.48719156
75	0xbeb4de65	-0.35325924
76	0xbee65a79	-0.449909
77	0xbf23f131	-0.64039904
78	0xbedebf4e	-0.4350533
79	0xbedcf9aa	-0.4315923
80	0xbf09196f	-0.53554434
81	0xbf065791	-0.52477366
82	0xbed8ead9	-0.42366675
83	0xbf13a4e0	-0.57673454
84	0xbee3ae5f	-0.44468972
85	0xbefb5107	-0.49085256
86	0xbec58e1e	-0.3858499
87	0xbee2bb7a	-0.44283658
88	0xbecd53ac	-0.401029
89	0xbec2ddd8	-0.38059878
90	0xbed0d829	-0.40789917
91	0xbed96fdb	-0.4246815
92	0xbedd4478	-0.432163
93	0xbf0716b9	-0.5276905
94	0xbf077bd5	-0.5292333
95	0xbf0afd95	-0.54293185
96	0xbf00bcbd	-0.5028799
97	0xbec535c9	-0.38517597
98	0xbf1602f8	-0.5859828
99	0xbef55102	-0.47913367
100	0xbecf887a	-0.4053381
101	0xbef86efb	-0.4852217
102	0xbf19af31	-0.60032946
103	0xbf1ac650	-0.6045885
104	0xbedc8052	-0.4306665
105	0xbec6a8fb	-0.38800797
106	0xbed57bf6	-0.41696137
107	0xbee05494	-0.43814528
108	0xbf0fc61d	-0.5616167
109	0xbed55cba	-0.41672307
110	0xbf20e407	-0.6284794
111	0xbf06b862	-0.52625096
112	0xbeffa710	-0.49932146
113	0xbed61b21	-0.41817573
114	0xbed86545	-0.42264763
115	0xbee11d76	-0.4396779
116	0xbf10c338	-0.5654788
117	0xbf044d55	-0.516805
118	0xbf18c809	-0.5968023
119	0xbefbc8fb	-0.49176773
120	0xbee63be7	-0.44967577
121	0xbef3a4a2	-0.47586542
122	0xbef3d4bb	-0.47623238
123	0xbf12bc24	-0.5731833
124	0xbf15ffce	-0.5859345
125	0xbf0b8cdf	-0.5451183
126	0xbebe063d	-0.37114134
127	0xbe9e9517	-0.30973122
128	0xbec07f97	-0.37597343
129	0xbed9f982	-0.42573172
130	0xbf2151fd	-0.6301573
131	0xbf0b38d1	-0.5438357
132	0xbf0f09b4	-0.5587418
133	0xbeb032af	-0.3441367
134	0xbeea5c52	-0.4577356
135	0xbecea4f6	-0.4036023
136	0xbee7ac1b	-0.45248494
137	0xbef5fec3	-0.4804593
138	0xbf1a2348	-0.60210085
139	0xbebfe80e	-0.3748173
140	0xbefa8d11	-0.4893575
141	0xbeab769d	-0.33488932
142	0xbf136244	-0.57571816
143	0xbe9a53c3	-0.3014203
144	0xbf073361	-0.52812773
145	0xbee0a7ef	-0.43878123
146	0xbeddd505	-0.43326584
147	0xbf07de81	-0.5307389
148	0xbece2e77	-0.40269825
149	0xbf058463	-0.5215513
150	0xbef40b0d	-0.4766468
151	0xbf0903b0	-0.5352125
152	0xbf0061b4	-0.50149083
153	0xbf0af999	-0.54287106
154	0xbee2becc	-0.4428619
155	0xbe93916c	-0.28821886
156	0xbef8b4c7	-0.48575422
157	0xbf159f67	-0.58446354
158	0xbf2153d0	-0.6301851
159	0xbedea38f	-0.4348416
160	0xbf14b4a4	-0.58088136
161	0xbe9b5714	-0.30339873
162	0xbee3b52f	-0.4447417
163	0xbf0e3ee2	-0.555647
164	0xbf0d8f82	-0.552971
165	0xbef9faad	-0.48824063
166	0xbf164c91	-0.5871058
167	0xbf11b7f1	-0.569213
168	0xbee31460	-0.44351482
169	0xbf0af97d	-0.5428694
170	0xbefde92f	-0.49591967
171	0xbecfc198	-0.40577388
172	0xbeee3c39	-0.4653032
173	0xbebf2011	-0.37329152
174	0xbee6bf67	-0.45067903
175	0xbef18011	-0.4716802
176	0xbf2c476c	-0.6729648
177	0xbf032450	-0.51227283
178	0xbee69b56	-0.45040387
179	0xbf0113a5	-0.504206
180	0xbefd2aa7	-0.49446604
181	0xbf048699	-0.5176788
182	0xbee0c869	-0.439029
183	0xbebe5b8a	-0.37179214
184	0xbf002c0c	-0.5006721
185	0xbedbbfec	-0.42919862
186	0xbe74b057	-0.23895393
187	0xbe98fffe	-0.29882807
188	0xbefe854f	-0.4971108
189	0xbef2f852	-0.47455078
190	0xbecbd26c	-0.39808977
191	0xbf05077a	-0.51964533
192	0xbf033402	-0.5125123
193	0xbef96a45	-0.4871389
194	0xbf09211d	-0.5356615
195	0xbee6e817	-0.45098945
196	0xbf061ff0	-0.5239248
197	0xbf190d8c	-0.59786296
198	0xbeea2d67	-0.45737764
199	0xbeeceace	-0.46272892
200	0xbf16c8ad	-0.58899957
201	0xbee88c01	-0.45419315
202	0xbed4d1f4	-0.41566432
203	0xbf06e44c	-0.52692103
204	0xbedbf753	-0.4296213
205	0xbeba5f17	-0.36400673
206	0xbeefe0e7	-0.46851274
207	0xbf08a45b	-0.53375787
208	0xbf1b411f	-0.6064624
209	0xbf002407	-0.50054973
210	0xbf38d49b	-0.7219941
211	0xbf0090f1	-0.50221163
212	0xbec3c63d	-0.3823718
213	0xbf0154bd	-0.50519925
214	0xbee160ea	-0.44019252
215	0xbefeaf58	-0.49743152
216	0xbef8ba5a	-0.48579675
217	0xbefa4352	-0.48879486
218	0xbf20df42	-0.62840664
219	0xbef2de98	-0.4743545
220	0xbef03fda	-0.46923715
221	0xbeb34ea3	-0.35020933
222	0xbf01d1dc	-0.50710845
223	0xbed3313d	-0.41248503
224	0xbefecab3	-0.49764022
225	0xbec8725a	-0.39149743
226	0xbee39783	-0.44451532
227	0xbee4bb65	-0.4467422
228	0xbee5bd26	-0.4487087
229	0xbf0f72fe	-0.5603484
230	0xbe93bc72	-0.2885471
231	0xbe918d74	-0.28428233
232	0xbf125621	-0.5716267
233	0xbf0f1e8e	-0.55906
234	0xbef6d302	-0.4820786
235	0xbef2325e	-0.47304052
236	0xbf15add2	-0.58468354
237	0xbebf013f	-0.37305638
238	0xbecb5df3	-0.39720115
239	0xbf0762ce	-0.5288514
240	0xbf1277ca	-0.57214034
241	0xbec06275	-0.37575117
242	0xbf11b23a	-0.5691258
243	0xbe920d6f	-0.28525874
244	0xbf0ca14f	-0.5493364
245	0xbf0c969a	-0.549173
246	0xbefc03ac	-0.4922155
247	0xbed99a95	-0.4250075
248	0xbf2001b0	-0.62502575
249	0xbf069a6c	-0.5257938
250	0xbea395e4	-0.31950295
251	0xbec5a4e3	-0.3860236
252	0xbef5cfef	-0.48010203
253	0xbf0eb818	-0.55749655
254	0xbea55f65	-0.32299343
255	0xbf1a4161	-0.6025601

net.1.running_mean f4 [256]
0	0xbedc1780	-0.4298668
1	0xbfb935d8	-1.4469557
2	0xc005af7e	-2.0888362
3	0xbfa73732	-1.3063719
4	0xc04e540e	-3.2238803
5	0x3f27c6a1	0.6553746
6	0xbf47848a	-0.77936614
7	0xbe6e4bce	-0.23271105
8	0xbf31c9f9	-0.6944881
9	0x3e5bebab	0.21476619
10	0xbf0f7e04	-0.5605166
11	0xbfbf1835	-1.4929262
12	0xbf2c30a3	-0.67261714
13	0xbfce9d3c	-1.6141734
14	0xbfdfaddc	-1.7474933
15	0xbfba0418	-1.4532499
16	0xbfa87807	-1.316163
17	0xbf5ba334	-0.85795903
18	0x3f26ebbb	0.65203446
19	0xbea594fc	-0.3234023
20	0xbf8e7867	-1.1130494
21	0xbf64c3d8	-0.89361334
22	0xbf13272a	-0.57481635
23	0xc0076ebc	-2.1161337
24	0xbec02ba6	-0.375333
25	0xc0027c78	-2.038847
26	0xbec5fcd7	-0.38669464
27	0xbedafc45	-0.4277059
28	0xbecc532a	-0.399072
29	0xbf775d1e	-0.9662646
30	0xc0074687	-2.1136796
31	0xbf652efa	-0.89524806
32	0x406bf82b	3.687022
33	0xbe3812d4	-0.17975932
34	0xbefb7004	-0.491089
35	0xc0045d5c	-2.0681982
36	0xbef82baf	-0.48470828
37	0xbe7d1959	-0.247167
38	0xbf910641	-1.1330034
39	0xbfb0a26c	-1.3799567
40	0xbf89fd68	-1.0780458
41	0xbed6363e	-0.41838259
42	0xbf39f12e	-0.72633636
43	0xbf8c60e5	-1.096707
44	0xbf3a795e	-0.7284144
45	0xbfdaf540	-1.7106094
46	0xc013f3b2	-2.311749
47	0xbfeb9910	-1.8406086
48	0xbf2c5fcc	-0.67333674
49	0xbcec1c1d	-0.028822
50	0xbf81410a	-1.0097973
51	0xbf2a3311	-0.6648417
52	0x3f9b5b82	1.2137301
53	0xbe0cf302	-0.13764575
54	0xbd66a5b2	-0.056310363
55	0xbffa6c39	-1.9564277
56	0xbf0f49f8	-0.5597224
57	0xbf9a83b7	-1.2071446
58	0xc03f0f06	-2.985292
59	0x3fa3f575	1.2809283
60	0xbf13fb9e	-0.5780581
61	0x3f7bb69c	0.98325515
62	0x3ee32966	0.44367522
63	0xbf144b16	-0.5792707
64	0x3f2a7ffd	0.66601545
65	0xbef632c9	-0.4808562
66	0xbdd5ae88	-0.1043368
67	0xbee072b2	-0.43837506
68	0xbf96c4e9	-1.1778842
69	0xbfa67eb6	-1.3007419
70	0xbee12824	-0.43975937
71	0xbe4bb7d9	-0.19894351
72	0xbf96bd8b	-1.1776594
73	0xbf0186c0	-0.5059624
74	0xbefa3ba2	-0.4887362
75	0x3e9d9f46	0.30785578
76	0x3f85b18a	1.0444806
77	0xbeb5c6f9	-0.35503367
78	0xbf6134f9	-0.87971455
79	0xbdc1f47b	-0.09470459
80	0xbf128c52	-0.5724536
81	0xbfd252dc	-1.6431537
82	0xbf094f9c	-0.536371
83	0xc007d9b5	-2.1226628
84	0xbf61c9b4	-0.881984
85	0xbe186dfe	-0.14885709
86	0xbf9c3786	-1.2204444
87	0xbe836634	-0.25663912
88	0xbf7ff320	-0.99980354
89	0xbe547e52	-0.20751312
90	0x3ec682a0	0.38771534
91	0xbe4a6c27	-0.1976782
92	0xbf82af00	-1.0209656
93	0xbfbd7935	-1.4802614
94	0xbf881574	-1.0631547
95	0xbf33acfd	-0.70185834
96	0xbf4247da	-0.75890887
97	0xbf8f31b0	-1.1187038
98	0xbdcf3de7	-0.10119229
99	0xbfe2cb24	-1.7718244
100	0x3ec1149b	0.37711033
101	0x3e8339b0	0.2562995
102	0xbf347d11	-0.70503336
103	0xbf8a157d	-1.0787808
104	0x3fbd454b	1.4786772
105	0x3fa96dfc	1.323669
106	0x3cfc0242	0.030762795
107	0x3f98e037	1.1943425
108	0xbfc6c529	-1.5528919
109	0xbf6e6ba9	-0.93133026
110	0xbf554563	-0.83309
111	0xc006d8a9	-2.106974
112	0xbf20cdfc	-0.6281431
113	0xbf21ceb1	-0.6320601
114	0x3f19f1e4	0.6013472
115	0xbfd56908	-1.6672678
116	0xc01a82c0	-2.4142303
117	0xbf1c3af9	-0.61027485
118	0xbf875c88	-1.0575113
119	0x3fa44c4a	1.2835782
120	0xbf982005	-1.1884772
121	0xbf457b66	-0.77141416
122	0x3f41c9f7	0.756988
123	0xbf5197e0	-0.8187237
124	0xbe0a3a5a	-0.13498822
125	0xbf525ef1	-0.8217612
126	0xbf980307	-1.1875924
127	0x3e88ec1b	0.26742634
128	0xbe2bfe28	-0.16796172
129	0xc03b03af	-2.9220998
130	0xbf1d510a	-0.6145178
131	0xbe1e0e97	-0.15435253
132	0xbfbd10d1	-1.4770757
133	0xbe5dd815	-0.2166446
134	0xbff15298	-1.8853331
135	0xc004590b	-2.0679348
136	0xbf22318c	-0.6335685
137	0x3ebac528	0.36478543
138	0xbfe3ffeb	-1.7812475
139	0xbe3cce54	-0.18438083
140	0xbf50eb20	-0.8160877
141	0x3fbebb0e	1.4900835
142	0xbf8c7e8e	-1.0976121
143	0xbf9ef529	-1.2418567
144	0xbf884137	-1.0644902
145	0x3dbb2f5b	0.09139892
146	0xbf4909c4	-0.78530526
147	0xbf768d8a	-0.9630972
148	0xbed47709	-0.41497067
149	0xbfe79fa1	-1.809559
150	0xc072763c	-3.7884665
151	0xbef15ecd	-0.4714264
152	0xbfd238f9	-1.6423637
153	0xbee698a1	-0.45038322
154	0x3fe8344c	1.814096
155	0x3da7cc72	0.08193292
156	0x3e2ef6cc	0.17086333
157	0x3f98aa5a	1.1926987
158	0x403dc511	2.965153
159	0xbf445109	-0.7668615
160	0xbf040bd9	-0.5158058
161	0xbf6e7567	-0.9314789
162	0xc043ae6e	-3.0575213
163	0xbf629ff9	-0.8852535
164	0xbf9b9160	-1.215374
165	0xbf3a183c	-0.7269323
166	0xbf7224f1	-0.9458762
167	0xbe1b091c	-0.15140194
168	0xbf4f63d2	-0.8101169
169	0xbf4a55ac	-0.79036975
170	0xbd01a304	-0.031649604
171	0xbe58e25d	-0.211801
172	0x3fbf2131	1.4932004
173	0xbe4ec43a	-0.20192042
174	0xbe5f471b	-0.21804468
175	0xbf2fa792	-0.68615067
176	0xbf4d42a1	-0.8017979
177	0xc002a504	-2.0413218
178	0xbf82c14a	-1.0215237
179	0x3e86dd1c	0.26340568
180	0xc01e4d7c	-2.4734793
181	0x3ed757a1	0.42059043
182	0xbf1ea079	-0.6196361
183	0xbe4b03d3	-0.19825678
184	0xbf85e489	-1.0460368
185	0x3f86d5b6	1.0533969
186	0xbf3db8ba	-0.74109995
187	0xbe694e78	-0.2278384
188	0xbf34cb28	-0.7062249
189	0xbf8eb3fa	-1.1148674
190	0xbf3f952e	-0.74837005
191	0xbf3c51d3	-0.73562354
192	0xc000f512	-2.014958
193	0xbc8bb900	-0.017055988
194	0xbf82392a	-1.0173695
195	0xbef89371	-0.4854999
196	0x3f075d13	0.52876395
197	0xbf87d9a5	-1.0613295
198	0xbf1e19b4	-0.6175797
199	0xbf023f99	-0.5087829
200	0xbe43047b	-0.19044678
201	0xbf152e8c	-0.5827415
202	0xbfcb6fb1	-1.589346
203	0xbf0b4ff6	-0.54418886
204	0xbf6b1c1b	-0.9183976
205	0xbf1ccbc8	-0.61248446
206	0xbed2ee86	-0.41197604
207	0x3e84e5a5	0.25956455
208	0x3e90e704	0.2830125
209	0x3e92dfb4	0.28686297
210	0xbf5ec8e6	-0.87025297
211	0xbf9c2230	-1.2197933
212	0xbf0d3e88	-0.5517354
213	0xbf190150	-0.5976763
214	0x3dd10a17	0.102070026
215	0xbfaa1ac8	-1.3289423
216	0x3f301530	0.6878233
217	0xc04cb296	-3.1984
218	0xbfcc36e8	-1.5954256
219	0xbf6b1333	-0.9182617
220	0xc0119be6	-2.2751403
221	0x3f3c39be	0.7352561
222	0xbfd8fba9	-1.69518
223	0xbfd3fd04	-1.6561589
224	0xbf7c4412	-0.9854137
225	0xbf8ce5a1	-1.1007577
226	0xbeb99690	-0.36247683
227	0xbf8706df	-1.0548972
228	0xbfa003ef	-1.25012
229	0xbf9500e1	-1.1640893
230	0xbf09565b	-0.53647393
231	0x3f6fa879	0.93616444
232	0xbfb367c7	-1.4016045
233	0xbf27fb0c	-0.6561744
234	0xbf1a69d2	-0.6031772
235	0xc01f1ab6	-2.4860053
236	0x3dcc2022	0.09967066
237	0xbce4728a	-0.027886648
238	0xbf242505	-0.6411899
239	0xbe33bffa	-0.17553702
240	0xbf156c1d	-0.5836809
241	0x3c46212f	0.0120928725
242	0xbf48c4e9	-0.7842546
243	0xbf6f583a	-0.93494
244	0xbf50cd47	-0.8156323
245	0xc0920d45	-4.56412
246	0x3f4715e9	0.7776781
247	0xbf26ef27	-0.6520867
248	0xbf50a5c1	-0.8150292
249	0xbf7d9930	-0.9906187
250	0x3fab10c6	1.3364494
251	0x3f1a731b	0.60331887
252	0xbda43a3c	-0.0801892
253	0xbf11af94	-0.56908536
254	0xbe7c81ef	-0.2465894
255	0x3e1de4cd	0.15419312

net.1.running_var f4 [256]
0	0x3f8a2f29	1.0795642
1	0x408fe669	4.4968762
2	0x405431b8	3.3155346
3	0x4006b6b4	2.1049013
4	0x41384613	11.517108
5	0x3fb0a420	1.3800087
6	0x3f976bf6	1.1829822
7	0x3fe045be	1.7521284
8	0x3f958f8b	1.1684431
9	0x3fa567d7	1.2922314
10	0x40403e9e	3.0038218
11	0x402d0441	2.7033846
12	0x3fe31706	1.7741401
13	0x40c99023	6.298845
14	0x40191382	2.3918157
15	0x3fd89d64	1.6923032
16	0x402c7165	2.694421
17	0x3f9f10e4	1.242703
18	0x3f9a3306	1.2046821
19	0x3f93f00c	1.1557631
20	0x3ffafce1	1.9608423
21	0x3fab4450	1.3380222
22	0x3ffc0559	1.9689132
23	0x40a943ff	5.2895503
24	0x3f8c2d65	1.0951353
25	0x40bd7c4f	5.9214244
26	0x3f6ba620	0.9205036
27	0x3ff47a9c	1.9099917
28	0x3fee6430	1.8624325
29	0x405bbda1	3.433449
30	0x40ded9d1	6.964089
31	0x3fe0b4bd	1.7555157
32	0x4040e9e6	3.014276
33	0x3fb3bcec	1.4042029
34	0x3fda819a	1.7070801
35	0x403900a6	2.8906646
36	0x40047f3f	2.0702665
37	0x3f895a68	1.0730715
38	0x3ff32d75	1.8998247
39	0x400947ea	2.1450143
40	0x400f4446	2.238542
41	0x405b99d3	3.4312637
42	0x404190ff	3.0244749
43	0x3ff47c76	1.9100482
44	0x3fcd8962	1.6057551
45	0x4073b4a9	3.8079016
46	0x4045ad3f	3.088699
47	0x4017d01f	2.3720777
48	0x3fbd1f33	1.4775146
49	0x3fd7bc1d	1.6854283
50	0x3fc58fc3	1.5434498
51	0x4003d87e	2.0600886
52	0x3ffd746d	1.9801155
53	0x4006d201	2.1065676
54	0x40228613	2.5394332
55	0x40ea4598	7.3209953
56	0x3f899e60	1.0751457
57	0x3feedc64	1.8661008
58	0x411628e1	9.38498
59	0x3fa63366	1.2984436
60	0x3fb133ff	1.3843993
61	0x3f87007c	1.0547023
62	0x3fa9d6b8	1.3268652
63	0x3feb2efb	1.8373712
64	0x3f839e26	1.0282638
65	0x3f83f981	1.0310518
66	0x3ff1ed3a	1.8900521
67	0x3fd262a0	1.6436348
68	0x40520aa0	3.2818985
69	0x3fc7f3f3	1.5621322
70	0x3f9b12de	1.2115133
71	0x3f9da870	1.2317028
72	0x401b09b4	2.4224672
73	0x3f95c2ce	1.1700075
74	0x3f8f0280	1.1172638
75	0x3fbcd7a0	1.4753304
76	0x3f9212b7	1.1411961
77	0x3f902586	1.1261451
78	0x400c6ce1	2.1941454
79	0x3fa1345c	1.2594104
80	0x3f84f657	1.0387677
81	0x4008a065	2.1347897
82	0x3ff52bfb	1.9154047
83	0x407b71d5	3.9288228
84	0x40098a87	2.14908
85	0x3fc81c60	1.5633659
86	0x4077ad5c	3.869956
87	0x3f9cdeda	1.2255509
88	0x403adcad	2.919719
89	0x3f86779c	1.0505252
90	0x3fa45704	1.2839055
91	0x3fee30bf	1.8608626
92	0x3f936cad	1.151754
93	0x40291d57	2.6424158
94	0x40164e66	2.348535
95	0x401a81ce	2.4141726
96	0x3fadcd6a	1.3578312
97	0x3fd1a1d9	1.6377517
98	0x3f8ecfa3	1.1157116
99	0x405361e2	3.3028493
100	0x3fbf05a1	1.4923593
101	0x3fa59fbe	1.2939374
102	0x3fb905b6	1.4454868
103	0x402f2424	2.7365808
104	0x3f9769cc	1.1829162
105	0x3fa19bdd	1.2625691
106	0x3f8f0dd2	1.1176093
107	0x3fd87fc8	1.6913996
108	0x408dd8e5	4.4327264
109	0x3fb76840	1.432869
110	0x40019c84	2.025178
111	0x4074d44d	3.8254578
112	0x4002439d	2.0353768
113	0x3fd8d1d7	1.6939038
114	0x3f674fff	0.9035644
115	0x40b0a8d5	5.5206094
116	0x407a72cc	3.9132566
117	0x3f93ba37	1.1541203
118	0x3f9d6845	1.2297446
119	0x3f92674f	1.1437777
120	0x3f8d2408	1.1026621
121	0x3fdaec0d	1.7103287
122	0x3fa5d371	1.2955152
123	0x3fa88d1d	1.3168064
124	0x40082614	2.127324
125	0x3fb3e045	1.4052817
126	0x40b1f59e	5.5612326
127	0x403c4440	2.9416656
128	0x3fa9a77b	1.3254236
129	0x41029035	8.160207
130	0x3fc1dc0a	1.5145276
131	0x3fd65869	1.6745731
132	0x40203969	2.503504
133	0x3f985aa4	1.1902661
134	0x4095550b	4.666631
135	0x411e2360	9.883636
136	0x400408c3	2.0630348
137	0x3fef2f63	1.8686336
138	0x40aad32d	5.3382783
139	0x3f953bea	1.1658909
140	0x3faafd68	1.3358583
141	0x3f9d9e61	1.2313958
142	0x3f91658e	1.1359117
143	0x40c1dcfd	6.058226
144	0x400caf9f	2.198219
145	0x3f65799d	0.8963869
146	0x3f9571f4	1.1675401
147	0x3fb80c29	1.4378711
148	0x3fdfb298	1.7476377
149	0x40586139	3.380934
150	0x41821cca	16.264057
151	0x3f97aa3e	1.1848829
152	0x40156e88	2.3348713
153	0x3fd14824	1.635014
154	0x3faf73a3	1.3707165
155	0x3fe6b3fc	1.8023677
156	0x3f5985ed	0.8496998
157	0x3f7a659f	0.9781131
158	0x400dd148	2.2158985
159	0x401f4148	2.4883595
160	0x3f80d1cd	1.0064026
161	0x3fc3a823	1.5285686
162	0x410c270b	8.759532
163	0x3fced3e4	1.6158414
164	0x40276aba	2.615889
165	0x3fbb5f48	1.4638453
166	0x3fb945a9	1.4474384
167	0x3f53b17e	0.82692707
168	0x3fb1792f	1.3865107
169	0x3fd6ccb0	1.6781216
170	0x3f9a1899	1.2038757
171	0x3fafd831	1.3737851
172	0x3f9ccf54	1.2250772
173	0x3fc0b764	1.5055966
174	0x3fbf4531	1.494299
175	0x3fced3ec	1.6158423
176	0x3fb6cb6e	1.4280832
177	0x40909eb1	4.5193715
178	0x402b65f7	2.6780984
179	0x3f9aeede	1.2104146
180	0x40eff5b9	7.4987454
181	0x3f85d15d	1.0454518
182	0x400fb2e7	2.2452943
183	0x3fd34210	1.6504536
184	0x3fa478ef	1.2849406
185	0x40458128	3.086008
186	0x4020d08f	2.5127294
187	0x4023bffe	2.5585933
188	0x40220f85	2.5321972
189	0x3fbd804c	1.4804778
190	0x402594b3	2.5872009
191	0x3f832d82	1.0248263
192	0x40505eea	3.255793
193	0x3f9c51cb	1.2212461
194	0x3ff3420e	1.9004533
195	0x402c2f56	2.6903892
196	0x3f5bab28	0.8580804
197	0x40300ebf	2.7509
198	0x3fb3adaa	1.4037373
199	0x3fc16d57	1.5111493
200	0x3f65e2ec	0.8979938
201	0x40131506	2.2981582
202	0x4000dab8	2.0133495
203	0x4001f5c6	2.0306258
204	0x4006e808	2.107912
205	0x403143bb	2.769759
206	0x3f9a736a	1.2066472
207	0x3f858822	1.043217
208	0x3f9f5690	1.2448292
209	0x3fd65e2d	1.674749
210	0x3fcc8d0c	1.5980544
211	0x4025dea3	2.5917137
212	0x401a2cdf	2.4089887
213	0x3f8addf8	1.084899
214	0x3f8d6a3b	1.1048044
215	0x40088160	2.1328964
216	0x3f6e8b9e	0.9318179
217	0x40c09273	6.017877
218	0x40284d6b	2.6297252
219	0x3fd4cff5	1.6625963
220	0x40667e65	3.6014645
221	0x3fa1dadf	1.2644919
222	0x4054c661	3.324608
223	0x408b5c4d	4.355017
224	0x403bc21b	2.9337223
225	0x3fb6b501	1.4273988
226	0x3ff2f719	1.8981658
227	0x400a92e2	2.165215
228	0x3fd63cea	1.673734
229	0x400599b5	2.0875065
230	0x403c2eb2	2.94035
231	0x4017123e	2.3604884
232	0x40a0ce6e	5.025199
233	0x3f8175cc	1.0114074
234	0x4004e021	2.0761797
235	0x40cd7aaf	6.421226
236	0x3f75bde6	0.9599289
237	0x401872de	2.382011
238	0x4045ad94	3.0887194
239	0x3fa260cf	1.2685794
240	0x3f7acff0	0.9797354
241	0x3fff2bd3	1.9935249
242	0x3fa4b42e	1.2867486
243	0x3fcf5a5c	1.619945
244	0x3fa383be	1.277458
245	0x418a29a9	17.270342
246	0x3f974178	1.1816854
247	0x403b5074	2.9267855
248	0x3f94032c	1.1563468
249	0x3fdb218b	1.7119612
250	0x3fd8cb0a	1.6936963
251	0x3fb7386e	1.4314096
252	0x3f9da287	1.2315224
253	0x3fcf3660	1.6188469
254	0x3fd9208b	1.6963056
255	0x3f34e759	0.7066551

net.4.weight f4 [128, 256]
0	0x3e0ac596	0.13551936
1	0xbc0403e4	-0.008057568
2	0xbe92eb0b	-0.2869495
3	0xbde6ff5b	-0.11279174
4	0x3db56ffc	0.0885925
5	0x3e0299a7	0.12753926
6	0x3e17bd07	0.14818202
7	0xbe622710	-0.22085214
8	0xbd622791	-0.055213515
9	0xbe184c61	-0.14872886
10	0xbe8a18bc	-0.26971996
11	0x3cb137dc	0.021633081
12	0xbce68e79	-0.028144108
13	0xbdb55f11	-0.08856023
14	0x3d7a72e8	0.06114474
15	0xbd7969db	-0.060891967
16	0x3cf6aeb1	0.030112596
17	0x3dc3e389	0.09564883
18	0xbbef7a0b	-0.00730825
19	0xbd2027a6	-0.03910031
20	0x3bdbf1ca	0.006712173
21	0xbe2e0f7e	-0.16998097
22	0x3d1a0a47	0.037607457
23	0xba9b1252	-0.0011831021
24	0x3ddc359b	0.10752412
25	0x3d10b7de	0.0353316
26	0xbb46216a	-0.0030232319
27	0x3e05723c	0.13031858
28	0xbae7b5dd	-0.0017678101
29	0x3d049c9a	0.03237591
30	0x3e152bbd	0.14567466
31	0xbe177fba	-0.14794818
32	0x3d5ea5e0	0.05435741
33	0x3c991c73	0.018690323
34	0x3dec9e6a	0.115536526
35	0xbdd1644a	-0.10224207
36	0xbcc296af	-0.023753492
37	0x3c2dfb04	0.010618929
38	0x3e260273	0.16211872
39	0x3b1eea89	0.002424868
40	0xbdc9becd	-0.098508455
41	0xbdcea857	-0.10090702
42	0x3cc5a61a	0.024127055
43	0xbcbb2bae	-0.022847977
44	0xbe03706d	-0.12835856
45	0xbc9b1e68	-0.018935397
46	0x3d8a322f	0.06747853
47	0x3daefa77	0.08543866
48	0x3b12d7f6	0.0022406555
49	0xba2a6967	-0.00065006915
50	0x3e0091c3	0.12555604
51	0xbd7ad393	-0.06123693
52	0xbdc7ba54	-0.09752336
53	0xbadedceb	-0.0017003095
54	0x3dad3fbf	0.08459424
55	0x3dc67cb3	0.09691753
56	0xbc99cb47	-0.018773688
57	0xbe88b28f	-0.2669873
58	0x3ba46d67	0.0050179246
59	0xbe2772e0	-0.16352415
60	0xbe0fea6b	-0.14054267
61	0xbe49b6e4	-0.19698673
62	0x3d6c5724	0.05770029
63	0xbdb2f577	-0.08738225
64	0x3e0f6947	0.14005004
65	0xbdde3179	-0.1084928
66	0xbe3a0aff	-0.18168257
67	0xbe25777e	-0.16158864
68	0x3d98ba22	0.07457377
69	0x3cb6bb1b	0.022306016
70	0x3d9fc51f	0.0780127
71	0xbd595d87	-0.05306771
72	0x3e417dca	0.18895641
73	0xbe220d19	-0.15825309
74	0xbd86d6ef	-0.06583964
75	0xbc3fcf86	-0.011707192
76	0x3e15c995	0.14627679
77	0xbe7fb0c5	-0.24969776
78	0xbd929f38	-0.07159275
79	0x3d9dcc2e	0.0770496
80	0x3c75621d	0.014977005
81	0xbd85df71	-0.06536759
82	0x3dff540f	0.12467205
83	0xbe14d1e4	-0.14533192
84	0x3d5719a3	0.052514683
85	0xbe316dd4	-0.17327052
86	0x3e4ba859	0.19888438
87	0xbe187a89	-0.14890493
88	0x3cfdb024	0.03096778
89	0xbe155041	-0.14581396
90	0xbce879f8	-0.028378472
91	0xbe09ada2	-0.13445142
92	0xbd95a321	-0.07306505
93	0x3cbb3a25	0.022854874
94	0xbd7f46cd	-0.06232338
95	0x3db9aaf7	0.09065812
96	0xbe37867d	-0.17922397
97	0x3d90d2fe	0.070714936
98	0xbe7a13ee	-0.24421665
99	0x3dd15810	0.10221875
100	0x3d9e6740	0.07734537
101	0x3d629044	0.055313364
102	0xbd83e068	-0.064392865
103	0x3c23c889	0.009996542
104	0xbd0138f7	-0.031548467
105	0xbd219228	-0.039446026
106	0x3d9d34e8	0.07676107
107	0x3cc1a9b9	0.0236405
108	0x3e3e4154	0.18579608
109	0xbd93bea7	-0.072140984
110	0xbd89d173	-0.067294024
111	0x3dc26594	0.09492031
112	0x3d1bd39e	0.03804361
113	0x3ceb7f60	0.02874726
114	0xbdd9d659	-0.10636587
115	0xbd425f6a	-0.047454275
116	0x3e6690d4	0.22516185
117	0xbd6d4963	-0.057931315
118	0x3d201b7b	0.039088707
119	0x3c96b739	0.018397914
120	0x3e8f8af9	0.28035715
121	0x3bccc598	0.006249141
122	0x3e18d471	0.1492479
123	0xbd6f7dd5	-0.058469612
124	0xbdbfc153	-0.093630455
125	0x3e1c5697	0.15267406
126	0x3e265569	0.16243519
127	0x3dd0a179	0.101870485
128	0xbd145bda	-0.03622041
129	0xbe6b214b	-0.22961919
130	0xbdd7dc9a	-0.10540123
131	0xbe2782ca	-0.16358486
132	0x3e597072	0.212343
133	0x3db394fb	0.0876865
134	0x3d7d5560	0.061848998
135	0x3d409e0f	0.047025736
136	0x3c08ff78	0.00836169
137	0x3da5ee0a	0.08102043
138	0xbdcaf703	-0.09910395
139	0xbc8f7382	-0.017511133
140	0x3e11d315	0.14240678
141	0x3d81a769	0.06330759
142	0xbde17cfd	-0.11010168
143	0x3cc433db	0.023950508
144	0xbbd6db6a	-0.006556918
145	0x3c3ffb6c	0.0117176585
146	0xbde232b4	-0.11044827
147	0xbe6ab33f	-0.2291994
148	0xbddfc751	-0.109266885
149	0xbe446661	-0.1917968
150	0xbe16d5bd	-0.14729972
151	0x3ee52407	0.4475405
152	0xbd19eea3	-0.037581097
153	0xbd950dbf	-0.072780125
154	0xbda931a6	-0.08261423
155	0x3d5228aa	0.05130831
156	0xbd17913d	-0.037003744
157	0xbe45d51b	-0.19319575
158	0xbd88ba90	-0.06676209
159	0x3e11fc39	0.14256372
160	0xbce5cceb	-0.028051814
161	0xbd8e4b72	-0.06947984
162	0xbcd48c9b	-0.025945952
163	0x3d2433cd	0.040088464
164	0x3e4027dc	0.18765205
165	0xbc83ca44	-0.016087659
166	0xbb8ca36f	-0.0042919437
167	0xbe02896b	-0.12747733
168	0xbe212466	-0.15736541
169	0xbd8cb7ea	-0.06871016
170	0xbde6cccd	-0.112695314
171	0xbd8c41d0	-0.0684849
172	0xbd5f319f	-0.05449068
173	0xbddac8e2	-0.106828466
174	0x3d9b25b7	0.07575553
175	0xbe537c63	-0.20652919
176	0xbe1a5569	-0.15071644
177	0x3e11e961	0.14249183
178	0xbe0a0edd	-0.13482232
179	0xbd0a1569	-0.033711825
180	0x3c9dde10	0.019270927
181	0xbcaee0fa	-0.021347512
182	0x3d9d9f90	0.0769645
183	0x3d8b524d	0.06802807
184	0xbe54c403	-0.20777898
185	0x3e0c78a4	0.13717896
186	0x3de966e2	0.113965765
187	0x3d20f3a8	0.03929487
188	0x3e104775	0.14089759
189	0xbe266d7a	-0.162527
190	0x3dd62d82	0.10457899
191	0x3dc321c4	0.09527925
192	0xbd209ea7	-0.039213803
193	0x3dd1b978	0.102404535
194	0x3dfb1f1c	0.12261793
195	0x3d2fb37f	0.04289579
196	0x3daf8411	0.085701115
197	0x3dc20b43	0.09474804
198	0xbe1dd97e	-0.15414998
199	0xbd287923	-0.04113115
200	0xbd10cb66	-0.035350226
201	0xbdd8a276	-0.10577862
202	0x3e6035c8	0.21895516
203	0xbcf83f9e	-0.030303773
204	0xbe445488	-0.19172871
205	0xbd88b5c1	-0.06675292
206	0x3c33de13	0.01097824
207	0xbe822fcd	-0.25427094
208	0xbd6424f0	-0.05569929
209	0x3e181d46	0.14854917
210	0x3d41fb08	0.047358543
211	0xbd0ba00d	-0.034088183
212	0xbe20abc7	-0.15690528
213	0x3dc0e785	0.09419159
214	0xbcf87d98	-0.030333325
215	0xbd600a25	-0.054697175
216	0xbd0daea6	-0.034590386
217	0x3d3d3998	0.046197504
218	0x3d82fd04	0.06395915
219	0xbdd765a4	-0.10517433
220	0x3e6a792d	0.22897787
221	0xbe41a019	-0.18908729
222	0xbdb38afa	-0.08766742
223	0x3e2d364e	0.16915247
224	0x3d9465b8	0.07245964
225	0x3df71209	0.12063987
226	0x3d325ab8	0.043543547
227	0xbda78a51	-0.08180679
228	0xbb92e8fd	-0.004483341
229	0xbe777c68	-0.24168551
230	0xbe146a49	-0.1449367
231	0x3ab2bc44	0.001363643
232	0xbe218162	-0.15772012
233	0xbd0aa1c6	-0.033845685
234	0xbdce229b	-0.10065194
235	0x3d99a332	0.0750183
236	0xbd0728ec	-0.03299801
237	0x3dcf6087	0.10125833
238	0x3d24c3c1	0.040225748
239	0x3c3855a5	0.011250888
240	0xbe132ab1	-0.14371754
241	0x3e0f3c27	0.1398779
242	0x3dbb08c0	0.09132528
243	0x3d75d7d9	0.0600203
244	0xbdac0028	-0.08398467
245	0x3cb40cb6	0.021978717
246	0x3dfcdb40	0.12346506
247	0x3cf63456	0.030054253
248	0x3dfd9c11	0.12383283
249	0x3d4a67fd	0.049415577
250	0xbce761bf	-0.028244851
251	0xbd139052	-0.036026306
252	0xbe4e8211	-0.20166804
253	0xbe0251be	-0.12726495
254	0xbe8320e6	-0.25611037
255	0x3d28eb0e	0.04123979

net.4.bias f4 [128]
0	0xbc7eec8a	-0.015559325
1	0x3d90a322	0.07062365
2	0x3d2943f5	0.041324575
3	0x3d188137	0.037232604
4	0x3d58504e	0.05281096
5	0xbccee96a	-0.025257785
6	0x3c5f8887	0.0136433905
7	0xbb806d1f	-0.0039192582
8	0x3c6fbbad	0.014632148
9	0xbb22400c	-0.0024757413
10	0xbc82cb21	-0.015966
11	0x3bf663f4	0.0075192396
12	0xbc56c176	-0.013107648
13	0x3d7723bd	0.060336817
14	0xbd11f449	-0.03563336
15	0xbcaced68	-0.021109298
16	0x3d533f21	0.051573876
17	0x3d779103	0.06044103
18	0x3c387fb0	0.011260912
19	0xbd856ead	-0.0651525
20	0xbd38a7b1	-0.045081798
21	0x3d316d5a	0.043317176
22	0x3ccdca89	0.02512099
23	0xbd3952bf	-0.04524493
24	0x3ccf16b5	0.025279382
25	0x3b05942b	0.0020382504
26	0x3b5ec348	0.0033990908
27	0x3d16199b	0.036645513
28	0xbc25a6ee	-0.0101106
29	0x3d554d23	0.052075516
30	0x3ca791db	0.020455291
31	0xbd607ebd	-0.054808367
32	0xbd7c4c2e	-0.061596088
33	0x3cae0679	0.02124332
34	0x3d0f1410	0.034931242
35	0x3d2a0364	0.04150714
36	0x3c04a3d2	0.008095698
37	0xbc673e66	-0.014113998
38	0x3d5c93ab	0.053851765
39	0xbd344b31	-0.04401702
40	0xbd4eba6e	-0.050470762
41	0x3d15f9ff	0.036615368
42	0x3c9f2b9a	0.01942997
43	0xbd3fbf04	-0.046813026
44	0x3c7f041c	0.015564945
45	0xbc6474b6	-0.013943842
46	0x3c8e1799	0.017345237
47	0x3ccc6fe0	0.02495569
48	0x3d5acd5e	0.05341851
49	0x3ab8456f	0.0014058779
50	0xbd3764e3	-0.044773947
51	0x3d83e0f3	0.0643939
52	0x3c90bb08	0.017667308
53	0x3d498c59	0.04920611
54	0xbc6738c5	-0.014112656
55	0x3c8e85f8	0.017397866
56	0xbceae8e0	-0.028675497
57	0x3d0312c3	0.032000314
58	0x3d0cb8ee	0.03435605
59	0xbd8991ce	-0.06717263
60	0xbc759f93	-0.014991659
61	0xbd0d7677	-0.034536805
62	0x3d561fdb	0.052276473
63	0x3ca75fa1	0.020431342
64	0x3d2928b4	0.041298583
65	0x3d233ec2	0.039854772
66	0x3cd198af	0.0255855
67	0xbd356d5f	-0.044293758
68	0x3d0e139f	0.03468668
69	0xbd0daf62	-0.034591086
70	0xbb48a2b9	-0.0030614568
71	0x3d33202f	0.043731865
72	0xbc2d19de	-0.010565249
73	0xbc13f630	-0.009030864
74	0xbd8c439c	-0.06848833
75	0x3c89a9de	0.016804632
76	0x3a22bfad	0.00062083715
77	0xbccb140a	-0.024789829
78	0x3cfa735a	0.030572582
79	0xbd38d1d3	-0.04512198
80	0x3cef2e88	0.029196993
81	0xbc1fd80f	-0.009756102
82	0x3d70a32a	0.058749355
83	0xbc180113	-0.0092776
84	0x3cca234c	0.024675034
85	0x3cc61482	0.0241797
86	0xbd226473	-0.039646577
87	0x3d375435	0.04475804
88	0xbcfeb98e	-0.031094339
89	0x3cc18abb	0.023625722
90	0xbcb5435a	-0.022126842
91	0xbcfead8f	-0.031088619
92	0x3bb5c200	0.0055468082
93	0x3cca9457	0.024728937
94	0x3d36ee50	0.044660866
95	0xbd1e09c9	-0.03858355
96	0x3cbdfa79	0.023190724
97	0x3d475b32	0.048670955
98	0xbb961d32	-0.004581117
99	0x3d58cf07	0.05293181
100	0x3c882f43	0.016624099
101	0xbca6ba21	-0.020352425
102	0xbcaf7bbe	-0.02142131
103	0xbd69cd88	-0.057080775
104	0x3d4c945e	0.04994618
105	0x3d5efed0	0.054442227
106	0xbd4ca872	-0.04996533
107	0xbd5f3d7d	-0.054502
108	0x3c6ff797	0.014646432
109	0x3d09c228	0.033632427
110	0x3bd09a4e	0.006366051
111	0x3d21729d	0.039415944
112	0xbd52d1b3	-0.051469516
113	0x3c9f8f0f	0.019477395
114	0x3d0a5547	0.033772733
115	0xbd26b26c	-0.0406975
116	0xbccd9112	-0.025093589
117	0xbd30b9eb	-0.043146055
118	0x3ceee0ec	0.029159985
119	0x3d2cddc5	0.042203683
120	0xbd1224d2	-0.035679646
121	0xbd012ab4	-0.031534865
122	0x3c71171b	0.014714981
123	0xbc5706f6	-0.013124218
124	0x3d54ff39	0.05200121
125	0xbc3ea77d	-0.011636612
126	0x3c48e4f5	0.012261619
127	0x3c2def55	0.010616143
